# Ultralytics YOLOv5 🚀, AGPL-3.0 license

# Parameters
nc: 80 # number of classes
depth_multiple: 0.33 # model depth multiple
width_multiple: 0.50 # layer channel multiple
anchors:
  - [10, 13, 16, 30, 33, 23] # P3/8
  - [30, 61, 62, 45, 59, 119] # P4/16
  - [116, 90, 156, 198, 373, 326] # P5/32

# YOLOv5 v6.0 backbone
backbone:
  # [from, number, module, args]
  [ #                                                   channel   size
    #                                                     3       512
    [-1, 1, Conv, [64, 6, 1, 2]], # 0-P1/2         0      64      512
    [-1, 1, Conv, [128, 3, 2]], # 1-P2/4           1      128     256
    [-1, 3, C3, [128]], #                          2      128     256
    [-1, 1, Conv, [256, 3, 2]], # 3-P3/8           3      256     128
    [-1, 6, C3, [256]], #                          4      256     128
    [-1, 1, Conv, [512, 3, 2]], # 5-P4/16          5      512     64
    [-1, 9, C3, [512]], # 6                        6      512     64
    [-1, 1, Conv, [1024, 3, 2]], # 7-P5/32         7      1024    32
    [-1, 3, C3, [1024]], #                         8      1024    32
    [-1, 1, SPPF, [1024, 5]], # 9                  9      1024    32

    [-1, 1, CreatMask, [512]], #                   10     1       32
    [-1, 1, SelectConv, []], #                     11     1       32
    [-2, 1, SelectMask, []], #                     12     1       256  mask with size of 256
    [-1, 1, nn.AvgPool2d, [2]], #                  13     1       128
    [-1, 1, mask01, []],   #                       14     1       128  mask with size of 128
    [-1, 1, nn.AvgPool2d, [2]], #                  15     1       64
    [-1, 1, mask01, []],   #                       16     1       64   mask with size of 64
    [-1, 1, nn.AvgPool2d, [2]], #                   17     1       32
    [-1, 1, mask01, []],   #                       18     1       32   mask with size of 32
  ]

# YOLOv5 v6.0 head
head: [
    [9, 1, Conv, [512, 1, 1]], #                   19     512     32
    [-1, 1, nn.Upsample, [None, 2, "nearest"]], #  20     512     64
    [[-1, 6], 1, Concat, [1]], # cat backbone P4   21     1024    64
    [[-1, 16], 3, SkipC3, [512, False]], #         22     512     64

    [-1, 1, Conv, [256, 1, 1]], #                  23     256     64
    [-1, 1, nn.Upsample, [None, 2, "nearest"]], #  24     256     128
    [[-1, 4], 1, Concat, [1]], # cat backbone P3   25     512     128
    [[-1, 14], 3, SkipC3, [256, False]], #( small) 26     256     128 --

    [-1, 1, Conv, [256, 3, 2]], #                  27     256     64
    [[-1, 23], 1, Concat, [1]], # cat head P4      28     512     64
    [[-1, 16], 3, SkipC3, [512, False]], #(medium) 29     512     64 --

    [-1, 1, Conv, [512, 3, 2]], #                  30     512     32
    [[-1, 19], 1, Concat, [1]], # cat head P5      31     1024    32
    [[-1, 18], 3, SkipC3, [1024, False]], #(large) 32     1024    32 --

    [[26, 29, 32, 11], 1, Detect, [nc, anchors]], # Detect(P3, P4, P5)
  ]
